…
  'Japanese cuisine is characterized by a delicate balance of flavors, emphasizing freshness and seasonality. It often features umami, a savory taste derived from ingredients like soy sauce, miso, and dashi. The cuisine incorporates a variety of textures, from the crispness of tempura to the tenderness of sushi. Common flavors include sweet, salty, sour, and bitter, often achieved through the use of rice vinegar, mirin, and various pickled vegetables. Overall, Japanese food is known for its simplicity, elegance, and harmonious presentation.'],
 'student_model': 'google/flan-t5-small',
 'student_model_instance': T5ForConditionalGeneration(
   (shared): Embedding(32128, 512)
   (encoder): T5Stack(
     (embed_tokens): Embedding(32128, 512)
     (block): ModuleList(
       (0): T5Block(
         (layer): ModuleList(
           (0): T5LayerSelfAttention(
             (SelfAttention): T5Attention(
               (q): Linear(in_features=512, out_features=384, bias=False)
               (k): Linear(in_features=512, out_features=384, bias=False)
               (v): Linear(in_features=512, out_features=384, bias=False)
               (o): Linear(in_features=384, out_features=512, bias=False)
               (relative_attention_bias): Embedding(32, 6)
             )
             (layer_norm): T5LayerNorm()
             (dropout): Dropout(p=0.1, inplace=False)
           )
           (1): T5LayerFF(
             (DenseReluDense): T5DenseGatedActDense(
               (wi_0): Linear(in_features=512, out_features=1024, bias=False)
               (wi_1): Linear(in_features=512, out_features=1024, bias=False)
               (wo): Linear(in_features=1024, out_features=512, bias=False)
               (dropout): Dropout(p=0.1, inplace=False)
               (act): NewGELUActivation()
             )
             (layer_norm): T5LayerNorm()
             (dropout): Dropout(p=0.1, inplace=False)
           )
         )
       )
       (1-7): 7 x T5Block(
         (layer): ModuleList(
           (0): T5LayerSelfAttention(
             (SelfAttention): T5Attention(
               (q): Linear(in_features=512, out_features=384, bias=False)
               (k): Linear(in_features=512, out_features=384, bias=False)
               (v): Linear(in_features=512, out_features=384, bias=False)
               (o): Linear(in_features=384, out_features=512, bias=False)
             )
             (layer_norm): T5LayerNorm()
             (dropout): Dropout(p=0.1, inplace=False)
           )
           (1): T5LayerFF(
             (DenseReluDense): T5DenseGatedActDense(
               (wi_0): Linear(in_features=512, out_features=1024, bias=False)
               (wi_1): Linear(in_features=512, out_features=1024, bias=False)
               (wo): Linear(in_features=1024, out_features=512, bias=False)
               (dropout): Dropout(p=0.1, inplace=False)
               (act): NewGELUActivation()
             )
             (layer_norm): T5LayerNorm()
             (dropout): Dropout(p=0.1, inplace=False)
           )
         )
       )
     )
     (final_layer_norm): T5LayerNorm()
     (dropout): Dropout(p=0.1, inplace=False)
   )
   (decoder): T5Stack(
     (embed_tokens): Embedding(32128, 512)
     (block): ModuleList(
       (0): T5Block(
         (layer): ModuleList(
           (0): T5LayerSelfAttention(
             (SelfAttention): T5Attention(
               (q): Linear(in_features=512, out_features=384, bias=False)
               (k): Linear(in_features=512, out_features=384, bias=False)
               (v): Linear(in_features=512, out_features=384, bias=False)
               (o): Linear(in_features=384, out_features=512, bias=False)
               (relative_attention_bias): Embedding(32, 6)
             )
             (layer_norm): T5LayerNorm()
             (dropout): Dropout(p=0.1, inplace=False)
           )
           (1): T5LayerCrossAttention(
             (EncDecAttention): T5Attention(
               (q): Linear(in_features=512, out_features=384, bias=False)
               (k): Linear(in_features=512, out_features=384, bias=False)
               (v): Linear(in_features=512, out_features=384, bias=False)
               (o): Linear(in_features=384, out_features=512, bias=False)
             )
             (layer_norm): T5LayerNorm()
             (dropout): Dropout(p=0.1, inplace=False)
           )
           (2): T5LayerFF(
             (DenseReluDense): T5DenseGatedActDense(
               (wi_0): Linear(in_features=512, out_features=1024, bias=False)
               (wi_1): Linear(in_features=512, out_features=1024, bias=False)
               (wo): Linear(in_features=1024, out_features=512, bias=False)
               (dropout): Dropout(p=0.1, inplace=False)
               (act): NewGELUActivation()
             )
             (layer_norm): T5LayerNorm()
             (dropout): Dropout(p=0.1, inplace=False)
           )
         )
       )
       (1-7): 7 x T5Block(
         (layer): ModuleList(
           (0): T5LayerSelfAttention(
             (SelfAttention): T5Attention(
               (q): Linear(in_features=512, out_features=384, bias=False)
               (k): Linear(in_features=512, out_features=384, bias=False)
               (v): Linear(in_features=512, out_features=384, bias=False)
               (o): Linear(in_features=384, out_features=512, bias=False)
             )
             (layer_norm): T5LayerNorm()
             (dropout): Dropout(p=0.1, inplace=False)
           )
           (1): T5LayerCrossAttention(
             (EncDecAttention): T5Attention(
               (q): Linear(in_features=512, out_features=384, bias=False)
               (k): Linear(in_features=512, out_features=384, bias=False)
               (v): Linear(in_features=512, out_features=384, bias=False)
               (o): Linear(in_features=384, out_features=512, bias=False)
             )
             (layer_norm): T5LayerNorm()
             (dropout): Dropout(p=0.1, inplace=False)
           )
           (2): T5LayerFF(
             (DenseReluDense): T5DenseGatedActDense(
               (wi_0): Linear(in_features=512, out_features=1024, bias=False)
               (wi_1): Linear(in_features=512, out_features=1024, bias=False)
               (wo): Linear(in_features=1024, out_features=512, bias=False)
               (dropout): Dropout(p=0.1, inplace=False)
               (act): NewGELUActivation()
             )
             (layer_norm): T5LayerNorm()
             (dropout): Dropout(p=0.1, inplace=False)
           )
         )
       )
     )
     (final_layer_norm): T5LayerNorm()
     (dropout): Dropout(p=0.1, inplace=False)
   )
   (lm_head): Linear(in_features=512, out_features=32128, bias=False)
 ),
 'evaluation_plan': {'metric': 'rouge', 'mode': 'text_generation'},
 'evaluation_metrics': {'rouge1': np.float64(0.29798213940806006),
  'rouge2': np.float64(0.13987302412010266),
  'rougeL': np.float64(0.26207630348021677),
  'rougeLsum': np.float64(0.2645734113055945)},
 'student_outputs': ['The tips are: Eat a healthy diet, and exercise regularly.',
…
